lenet5.pth (torch, 250091 bytes, 10 tensors)

conv1.weight f4 [6, 1, 5, 5]
000000 ef 5c 47 3e 61 69 e3 bd 9a d6 60 3e ca 5c df bd
       0.19469045 -0.11104084 0.21956864 -0.1090637
000010 b8 f5 80 3e fc 4f 53 3e df 5d 4b 3e 61 34 f2 3e
       0.2518747 0.2063598 0.19860028 0.47305587
000020 d2 c2 35 3f e9 78 ed 3e 50 99 b7 3e 50 25 3a 3f
       0.710004 0.4638131 0.35859156 0.72713184
000030 20 c8 2a 3f 73 8d 3a 3f d7 ca 1d 3f 25 ed 8d 3e
       0.66711617 0.72872084 0.61637634 0.2771999
000040 af 27 c9 3e ed c4 9e 3e 24 8e e5 3e 1e 63 b8 3e
       0.3928809 0.31009617 0.44835007 0.3601312
000050 6c 76 a9 be bf 92 d5 be a4 65 ba be bb 70 da bd
       -0.3309816 -0.4171352 -0.3640567 -0.10666033
000060 b3 9e 20 3c f1 30 3c 3e 89 cf 91 3e 26 82 77 3e
       0.009803462 0.18378045 0.2847865 0.24170741
000070 4a 32 b9 bd 94 c4 a3 3d 78 05 99 bd 8b dc bb 3e
       -0.09042795 0.07996479 -0.07471746 0.36691698
000080 5b 75 ef 3d 7c ee bf 3e ba 10 6e 3e 18 38 1b 3e
       0.11692306 0.37486637 0.23248568 0.15158117
000090 01 99 c4 bd a1 0b f7 3d f7 89 47 3e 46 3a 77 3e
       -0.09599496 0.12062765 0.19486223 0.24143323
0000a0 c7 35 0b 3e 5b 8c 82 3d 8d 95 10 be 7b 46 0e be
       0.13594733 0.06374427 -0.14119549 -0.13894074
0000b0 9f 45 1b 3e f4 f5 94 be 74 f6 24 bd 16 cb 60 be
       0.15163277 -0.29093897 -0.0402741 -0.21952471
0000c0 42 88 a5 be 27 87 63 bd c1 78 8a 3e 1f d0 9e 3e
       -0.3233052 -0.055548813 0.27045253 0.3101816
0000d0 98 d6 b0 3e 21 6e f5 3d cc 3c 10 3e ed e5 a7 3e
       0.34538722 0.11983896 0.14085692 0.32792607
0000e0 24 97 eb 3c 26 fa 39 3e 0e 78 2b be 5d 5a ab bd
       0.028758593 0.1816183 -0.16745016 -0.08366845
0000f0 0b 39 9f 3e f0 5a 46 3e 2d 93 9b bc 16 12 49 be
       0.31098208 0.19370627 -0.018991077 -0.19635805
000100 2c 3a 22 be 50 00 e6 bd fc cd 59 be ad ba 11 be
       -0.15842503 -0.11230528 -0.21269983 -0.14231367
000110 2d 60 87 be 19 ea 66 bc 30 40 4b 3e 53 ea 8a 3d
       -0.26440564 -0.014093899 0.19848704 0.06782975
000120 47 1e be 3d 97 21 c1 bd bb de a3 3d ea bb 3c be
       0.09283119 -0.09430235 0.08001467 -0.18431059
000130 a5 d3 c5 3e 60 3b 18 3f 53 14 93 3e 8e d5 b8 3e
       0.38638034 0.594656 0.28726444 0.3610043
000140 e2 05 0e 3e 69 71 00 3f 50 83 11 3f 8f b3 39 3f
       0.13869432 0.5017305 0.5684099 0.7253961
000150 6c ee 27 3e c9 f3 53 3d 05 8c 1d 3f 5c cb 55 3f
       0.16399544 0.051746164 0.6154178 0.83513427
000160 29 be 2b 3f bb 8f 10 3e b9 78 ae 3d 87 0c 8a 3e
       0.67087036 0.14117329 0.0851912 0.26962683
000170 db 2b 16 3f 4f d0 61 3e 0b 5a df 3d c3 27 4e 3e
       0.5866067 0.2205212 0.10905846 0.20132355
000180 e5 e3 a9 3e 46 84 ac 3e 98 7d dc 3d 83 c8 32 3e
       0.33181682 0.33694667 0.107661426 0.17459302
000190 a4 f4 35 be 58 2b 55 bc bc 21 4e 3d 69 8a ee bc
       -0.17769104 -0.013010822 0.05032514 -0.029118733
0001a0 27 16 0e 3d 7f 68 6a be 35 9c 82 be 68 c2 1f 3c
       0.034689095 -0.22891425 -0.25509802 0.00975094
0001b0 c6 81 9f bd c9 f5 8c 3e f4 f7 bc bd ed 67 19 be
       -0.07788424 0.2753127 -0.09226981 -0.14981051
0001c0 69 ec f6 bb 08 59 3e bd 8b de 75 3e 5a b9 68 be
       -0.0075355065 -0.046471626 0.24010675 -0.22726956
0001d0 fd 51 99 bc 90 ba f9 3b 9b 89 b6 3e 26 ce 55 3e
       -0.018715853 0.007621117 0.3565186 0.2087942
0001e0 9f 5b 52 3e 79 c0 86 3e b4 32 f4 3d 3a 08 9e 3e
       0.20542763 0.2631872 0.11923733 0.3086565
0001f0 f9 80 59 bd 49 1d 4c be fc c4 3e 3b e6 62 16 be
       -0.053101514 -0.19933046 0.002910911 -0.14686164
000200 37 bc c0 bd 05 2f 0f be 62 b1 39 bb 51 b7 45 be
       -0.09410899 -0.1398278 -0.0028334488 -0.19308211
000210 c6 df c9 bd be 03 bb 3d cd 2d c4 3d c3 43 41 3d
       -0.098571345 0.09131573 0.09579048 0.047183763
000220 d0 89 c4 3c 64 68 04 be fb af 3b 3d d1 14 93 3d
       0.023991495 -0.12930447 0.045822125 0.07181705
000230 e9 b8 ce 3d ef e1 28 bd 44 ab b0 bd 67 fc 0c 3e
       0.100938626 -0.041231092 -0.08626416 0.13768159
000240 c3 c6 cb 3d f4 5a 80 3e 4c 8b 9a 3d 08 a9 2e bd
       0.0995002 0.25069392 0.075461 -0.04264167
000250 1f a1 f0 3d db 56 27 be
       0.117494814 -0.16341726

conv1.bias f4 [6]
000000 a0 46 77 3b ed 69 3e 3d fa 6c eb 3b 25 65 c2 ba
       0.0037731305 0.046487737 0.007184622 -0.0014831169
000010 b1 29 80 3e cf d8 64 3d
       0.25031808 0.055870827

conv2.weight f4 [16, 6, 5, 5]
000000 aa 90 00 bd e8 05 d4 3d 18 04 31 3e 61 ee ad 3d
       -0.031387962 0.10352689 0.17286718 0.08492733
000010 dd 7f 4a be 8f 6c 68 bb 3d b8 c1 bd c7 e9 b9 3d
       -0.19775338 -0.0035465097 -0.09458969 0.090777926
000020 2f a7 6b 3e 2d 67 1f bd 2c 4c a0 bc 1f be 9c bc
       0.23012994 -0.038916755 -0.019567572 -0.019133626
000030 59 5f e4 3c f5 92 48 3e e4 4d 99 bc 42 19 7b bd
       0.027877497 0.1958731 -0.018713899 -0.061303385
000040 80 e7 05 be 19 80 8b bd 0a b2 ef 3d 59 0e bc 3c
       -0.13076591 -0.06811542 0.1170388 0.02295606
000050 ad 8c 94 bd 3b 6f 1e be c6 34 12 bd 31 10 19 3d
       -0.07253394 -0.15472119 -0.03569486 0.037368957
000060 3b 2a 50 bc 29 b5 20 bd 5b 5f aa 3d 96 a2 bc 3d
       -0.012705381 -0.039235268 0.08318969 0.09210698
000070 e8 a8 cd bc 7e 19 c2 3c 27 58 df bc c8 71 76 3d
       -0.025104955 0.023693796 -0.027263714 0.060167104
000080 b2 6e 7a 3b 79 aa 15 3d b5 1c 32 bd 6f e0 07 bd
       0.0038212952 0.03653953 -0.04348441 -0.03317302
000090 5f 3c bc bd 25 79 1c bd 83 0b 99 3d 09 59 ac 3d
       -0.09191202 -0.03820147 0.07472899 0.084154196
0000a0 0c fc 46 bd 98 75 8b bd 40 a7 3d bd 72 8e 31 3d
       -0.048580214 -0.068095386 -0.04630208 0.043348737
0000b0 55 b5 23 3d 38 a8 97 bd b2 c3 3d bd de d8 d0 bd
       0.039967854 -0.07405132 -0.046329208 -0.10197614
0000c0 7b 3e 8c bb 62 1b bd bc ae 77 30 3d d8 b8 65 3d
       -0.004279909 -0.023084346 0.043082885 0.056084484
0000d0 af ba 54 bd ba 94 60 bb eb 9d 24 bd 75 14 84 3d
       -0.051935848 -0.0034268335 -0.040189665 0.06449214
0000e0 1a ff dd 3c 87 01 73 bd 81 10 e5 3c 0c 45 20 bc
       0.027099181 -0.05932763 0.027961971 -0.009782087
0000f0 4e 88 9a 3c d2 d3 9e bc 80 5a 61 bd 3a 6a 90 ba
       0.018863823 -0.019388113 -0.05501795 -0.0011017986
000100 5f 2d c1 3c 88 1d 98 bd 0f 81 44 bd 7d 7c 53 bd
       0.023581205 -0.07427508 -0.047974642 -0.051632393
000110 17 f2 f1 bd 77 8a a5 bc bb c8 b6 3c e7 88 a5 bc
       -0.11813753 -0.020207627 0.022312513 -0.020206882
000120 87 37 02 bd 4e 29 06 3c 8a 3d b9 3b b4 25 7c bd
       -0.031791236 0.008188559 0.005653088 -0.061559394
000130 e6 52 15 3c 8f 41 e4 bb c9 d1 eb 3d 0c 64 22 be
       0.009114003 -0.006965823 0.11514623 -0.15858477
000140 15 8d da bd c2 21 3c bd e1 30 10 3e 0b d7 74 3e
       -0.106714405 -0.04593063 0.14081146 0.23910157
000150 8d 36 25 3e e6 8e 91 bc 93 db 5d bd 2a 65 3d bd
       0.1613409 -0.017768335 -0.05416448 -0.046239056
000160 a8 b7 72 3e b1 bc 67 3e 79 b9 b5 bd 6b e1 21 be
       0.23702872 0.22630574 -0.08873267 -0.15808646
000170 e3 a7 11 be 0e 6c 9c 3d d4 e2 55 3e 9e c1 6f bd
       -0.142242 0.07637797 0.2088731 -0.058534257
000180 7b 48 32 be 5b e6 17 bd 5d 7a b0 3d 21 89 2c 3e
       -0.17410462 -0.03708492 0.08617089 0.16849186
000190 fb ed 60 3d c2 52 a2 3c 98 4a ed bc 10 5d c0 bd
       0.054914456 0.019814853 -0.028966233 -0.0939275
0001a0 55 a0 aa 3c 44 a0 34 3d 51 9a 3a bd ea 14 6d bd
       0.020828405 0.044098154 -0.045557324 -0.057881273
0001b0 d0 f2 4f bd fc b4 24 bd 5a 44 28 3d 4a 3c 16 bd
       -0.050768673 -0.040211663 0.04108081 -0.03667859
0001c0 2d 74 0c bd b3 9b 03 3d 09 41 b1 3b ce 26 23 bd
       -0.03429048 0.03213091 0.005409364 -0.03983193
0001d0 27 19 b8 bd a7 77 29 bc 8a 80 a1 3d f1 94 02 3d
       -0.089891724 -0.010343469 0.07885845 0.031880323
0001e0 7d 9e b0 bb 7e ea 2f 3d ed 9d 93 bd 76 78 d5 bc
       -0.005389987 0.04294824 -0.07207856 -0.026058417
0001f0 b1 e7 59 bc 6d 19 25 bc ab db 9a 3d 47 3e 80 bd
       -0.013299868 -0.010076863 0.075614296 -0.062618785
000200 7d a2 9b bc 99 37 4f 3d be 6f f0 3c f0 2b b3 bd
       -0.018998379 0.05059013 0.029350158 -0.08748615
000210 32 2e 29 bc 63 94 41 bc 47 62 76 3d 29 68 dd bc
       -0.010325955 -0.011815163 0.06015232 -0.027027206
000220 03 ac d3 3a a9 81 b2 3c 88 e2 d4 3c 0f ef 9a bd
       0.0016149286 0.021790342 0.025986925 -0.07565128
000230 10 e8 90 bc 5c 37 34 bd 2c 95 61 3d 52 25 97 bc
       -0.017688781 -0.043998107 0.055073902 -0.018450413
000240 e4 6d 9c bd 50 b2 c1 3a 7d e1 b7 3b b6 8f 9d bd
       -0.076381475 0.0014777873 0.005611597 -0.07693426
000250 61 fb e7 bc 63 0c ea 3b 40 fc cb 3c 32 70 41 bd
       -0.028318109 0.00714259 0.024900556 -0.04722614
000260 cc ea 84 bd 31 6c 34 3d e0 40 ec 3b d9 61 a4 bd
       -0.064900964 0.044048492 0.007209882 -0.080264755
000270 6e 13 11 3e 2d 35 fc 3c fa 21 cc 3d c9 5b e9 3a
       0.14167568 0.030787075 0.09967418 0.0017803843
000280 7a 06 38 bd fe 4e 07 3e 87 e1 ce bd 04 0f 2a be
       -0.04492805 0.13213727 -0.1010161 -0.1660729
000290 ea 79 01 be dc 52 22 3d 06 bb bc bb 71 6c 88 be
       -0.12644163 0.039629802 -0.0057595996 -0.26645234
0002a0 77 42 1f be fe c8 28 bc 81 15 e3 3d b1 38 36 be
       -0.15552698 -0.0103018265 0.11088086 -0.17795064
0002b0 1b 78 88 be 0f 24 19 be ec 01 f1 3b d6 3e 9c bd
       -0.26654133 -0.14955162 0.0073549654 -0.076291725
0002c0 62 de 01 bd d2 4a 56 3b 18 05 58 bd 4f da 33 bc
       -0.03170622 0.0032698405 -0.052739233 -0.010977342
0002d0 08 4c a1 bd 7a f3 14 bd 64 6f 0f 3b f5 8c 3e 3d
       -0.0787583 -0.03636501 0.0021886462 0.046521146
0002e0 33 9d 88 3d 6b f9 e9 bd ce 1d 34 bb 9e 9f e1 3c
       0.06670608 -0.11424526 -0.0027483585 0.027541932
0002f0 3a 9b 0c 3d 92 98 9d bd 54 38 09 be 96 5e 15 bd
       0.034327723 -0.07695116 -0.13400394 -0.036467157
000300 3f 19 91 3d ce 88 5a 3c ca 49 4e bd 14 e5 4e bd
       0.070848934 0.013338281 -0.05036334 -0.050511435
000310 47 6b 75 bc 3d 94 73 bd ce 31 cf bd 50 a4 2f 3a
       -0.01497919 -0.059467543 -0.10116921 0.00067002047
000320 5c 59 17 be 02 8e 15 bd 5a 6c 21 bd 84 71 93 bd
       -0.14780182 -0.036512382 -0.039409973 -0.07199386
000330 4d 3d 27 bc a2 8a bd 3c e8 ba 88 bc 44 41 26 bd
       -0.010207486 0.023137394 -0.016690686 -0.040589586
000340 0d 18 02 3e 59 2a 9d bb 2f 07 24 bd c7 77 ec 3d
       0.12704487 -0.004796308 -0.040045913 0.11546283
000350 af ab a0 3d d4 36 7f 3d e7 60 30 3b 6a 9a 3b 3d
       0.07845246 0.062308148 0.0026913227 0.045801558
000360 63 92 34 3e 09 b4 1c 3e f9 c5 d2 bc 1e 0c 98 bd
       0.17633967 0.15303053 -0.025729166 -0.07424186
000370 06 79 19 3d 90 e6 da 3d b5 2d 92 3d 4b 2f df bd
       0.037468933 0.106885076 0.07137624 -0.10897692
000380 e5 be 7e 3d a8 d7 9f bd ec 2c 54 bc c9 af 11 3e
       0.06219377 -0.07804805 -0.012950163 0.14227213
000390 93 0e d5 3d a8 47 b9 3d 43 9b 95 bd 89 e7 2c 3e
       0.104031704 0.090468705 -0.073050044 0.16885199
0003a0 e5 cf ab 3e 09 54 b5 3d d8 d6 b0 bd 07 3b 24 bc
       0.33557048 0.08853919 -0.08634728 -0.010023839
0003b0 2e 28 c9 3e ba 4b e4 3d 09 83 31 be e2 fc ec bd
       0.39288467 0.11147256 -0.17335142 -0.11571671
0003c0 5b 5a 95 3e 52 ca 87 3e 1a 9e 2d be 1a af 34 be
       0.29170498 0.26521546 -0.16954842 -0.17644921
0003d0 97 7d 69 ba ee 88 06 3e ff 18 9c 3d db 97 b0 be
       -0.0008906959 0.13138172 0.07621955 -0.34490857
0003e0 f8 4c 20 be 07 bc 7b 3d 96 a8 93 bd b8 ac a0 3d
       -0.15654361 0.061458614 -0.072098896 0.078454435
0003f0 47 65 b2 3d 57 e3 68 3c fa 6a 72 3d 61 99 84 3d
       0.08710723 0.014214358 0.059184052 0.06474567

conv2.bias f4 [16]
000000 a5 94 d1 bc 23 ac a4 3d da f9 62 bd 92 0a 45 3c
       -0.025583575 0.08040645 -0.05541406 0.012026446
000010 70 f4 af 3d da 3b 01 bc 77 59 cc bc c0 87 07 bd
       0.08591545 -0.007887805 -0.024945004 -0.033088446
000020 52 63 1a 3e 04 e9 08 bd e7 f2 27 3c 58 c2 aa bc
       0.1507695 -0.033425346 0.0102507835 -0.020844623
000030 b1 63 45 bd 18 ac 9b bd 54 e8 5a bc 4f 5d f0 3c
       -0.048190776 -0.07601184 -0.013361055 0.029341368

fc1.weight f4 [120, 400]
000000 89 81 8d bc 56 82 e1 bc ef 37 93 bb eb 37 40 bd
       -0.017273681 -0.02752797 -0.004492752 -0.046928328
000010 49 79 1d bd 97 9b 8c bb 0b 4f 32 3b 2b 82 52 bd
       -0.038445745 -0.0042910087 0.0027207758 -0.05139367
000020 4c b8 44 3c 68 62 14 bd 9c b6 31 3c b9 37 87 bd
       0.01200683 -0.03622666 0.01084676 -0.06602425
000030 44 21 41 3d 79 08 94 3c c0 5a ee bc 85 bf 70 3d
       0.047150865 0.018070446 -0.029096007 0.058776397
000040 3a 65 05 3c df 8e 90 3b c5 6e ea 3c a0 2c 4e bd
       0.00814181 0.004411563 0.028617272 -0.050335526
000050 6f 86 fc 3c 7d 42 28 bb 6e d5 fc 3c c7 26 42 3d
       0.030825822 -0.0025674396 0.03086349 0.047400262
000060 1e c1 69 3d 6d fd 20 bd ae 0b a4 3b 00 29 35 bd
       0.057068937 -0.039304186 0.005006275 -0.044228554
000070 d3 36 25 3d 51 35 b1 3c 03 7d be 3c 2e 21 c0 3c
       0.040335488 0.021631869 0.02325297 0.023453321
000080 19 84 88 bd 2d 04 5a 3c de f8 f7 bb b0 4b 0d 3c
       -0.06665821 0.01330666 -0.007567509 0.008624002
000090 f5 02 b6 bd 31 af c3 bc 6c 65 9b bd 4c da 81 3d
       -0.08887283 -0.023887249 -0.07587704 0.06340465
0000a0 dd e5 d7 bc 2b 4f 17 bd 8c dc 89 bc 7c e9 82 3d
       -0.026354725 -0.036940735 -0.016828798 0.0639219
0000b0 67 04 8a 3c 6a 8c 07 bb 33 22 c5 3d 3a 77 8f 3d
       0.016847802 -0.0020683059 0.096256636 0.070051625
0000c0 3b 79 52 3d ec 90 89 bd f7 cd 04 3b 48 45 c9 bc
       0.051385146 -0.06717095 0.0020264366 -0.024569169
0000d0 d2 88 85 3c 40 80 85 bb 24 92 9a 3c 1b 54 76 3c
       0.016300593 -0.0040741265 0.018868513 0.015034701
0000e0 b4 c1 b2 3c 44 65 2d bd 4a 2c ed bc 30 fe 31 3d
       0.02182088 -0.042332903 -0.028951783 0.043455303
0000f0 a6 66 28 bd 4e 23 a2 bc bf 55 8f 3c a5 c4 6e 3c
       -0.04111352 -0.019792225 0.017496942 0.014573251
000100 42 23 38 3d 0d 9d b1 3c 27 63 c9 3c 72 4f 09 bd
       0.0449555 0.021681333 0.024583412 -0.03352303
000110 e4 82 ec 3c d6 6e f0 3c 6f 5f 91 bc a4 9f 49 3c
       0.028871007 0.029349726 -0.017745702 0.012306128
000120 a5 ed 2d bd 4f 39 91 3c 31 ca 3f 3d dc 1c 0e bd
       -0.042462964 0.017727522 0.046823684 -0.03469549
000130 86 ba f1 3c ae 54 60 3d ea 3b 0d ba 8b 03 3d bd
       0.029507887 0.054768257 -0.0005387651 -0.046145957
000140 62 91 3e 3a 83 5f 18 bd d3 4d 48 bc 26 d5 57 3d
       0.00072695885 -0.037200462 -0.012225586 0.05269351
000150 55 41 1b bd f3 d7 1c 3c 57 6d 3a 3d d5 dc ab 3b
       -0.037904102 0.009572971 0.04551443 0.005244831
000160 71 07 37 3d 30 71 42 3c 76 64 01 bb 19 f3 e7 bb
       0.04468483 0.011867806 -0.0019743717 -0.00707854
000170 c3 a3 95 bd 04 22 22 bc 28 9c 72 bc 23 c8 4d 3c
       -0.07306626 -0.009895805 -0.014807738 0.012559923
000180 a8 0e 78 3d 75 26 2e 3c c7 ad d2 3c 4a 41 c9 3c
       0.060560852 0.010629286 0.02571763 0.024567265
000190 80 b7 2d 3c 10 88 f4 3c 0e 7b 18 bd ba 7b 41 3c
       0.010602832 0.029850036 -0.03722673 0.011809284
0001a0 19 93 8a bc 53 d8 95 bc 8a be 1f 3d 6d 4f 77 bd
       -0.016915845 -0.018291628 0.03900007 -0.06037848
0001b0 40 47 09 bc 72 d9 2e bd 76 e6 99 bd 86 17 47 bd
       -0.008378804 -0.04268784 -0.0751466 -0.048606418
0001c0 e9 10 29 bd 0c c0 68 3d b4 4a c9 bc a4 0a 7e bd
       -0.041275892 0.056823775 -0.024571754 -0.062021866
0001d0 ac 06 e1 bc d4 96 87 b9 86 ee e7 bc 9f 59 93 ba
       -0.027469002 -0.00025861582 -0.028311979 -0.0011241919
0001e0 b5 fb e9 3c 00 c1 c2 bc a5 6d cc 3b 31 e3 58 bc
       0.028562406 -0.02377367 0.0062386566 -0.01323776
0001f0 bd 66 39 bd 22 a2 7c 3c e0 48 35 3b ba 8b 38 bd
       -0.045263994 0.015419515 0.0027661845 -0.04505513
000200 d0 91 1d 3d 96 94 6d 3d 55 79 a5 bc 4f e1 e2 bd
       0.038469136 0.05800303 -0.020199457 -0.110781305
000210 dc 69 d5 bd 01 33 66 bd b8 3a 51 3c 28 02 cc bd
       -0.10420582 -0.056200985 0.012770347 -0.09961349
000220 5c 1c b3 3c 16 e9 b1 3b dc a2 95 3c ac 55 2a bd
       0.021864109 0.0054293973 0.018266134 -0.04158561
000230 fe 14 d8 3d c0 6a c4 3d cd 06 88 3d 94 76 0a 3d
       0.10550879 0.095906734 0.06641922 0.03380449
000240 c5 fa 01 3d 9d 88 41 bc 8a 98 81 bd 76 46 ce bd
       0.031733293 -0.011812356 -0.06327923 -0.10072033
000250 97 b2 96 bd d7 06 ac bb 1a 8d 8a bd d4 10 9a bc
       -0.07358282 -0.005249839 -0.06765194 -0.018806852
000260 0a 31 f4 bc 85 f1 87 3c bf a9 75 bd 88 4c 61 bd
       -0.02980854 0.016594658 -0.059976336 -0.055004627
000270 5d 38 08 3d 47 5a e4 3c e9 a5 59 bd 40 2e 4d bd
       0.033256877 0.027875079 -0.05313674 -0.050092936
000280 f8 e6 68 3d f7 58 1d bd d1 7e 25 bd 2d 3b 22 3c
       0.056860894 -0.03841492 -0.040404145 0.009901804
000290 97 db 98 bd 7b 16 f3 3c 32 d9 2e bd 5e c5 6b 3d
       -0.074637584 0.029673805 -0.042687602 0.05756127
0002a0 7b c5 18 3d ed c6 da bc f5 c1 d3 bc 9e 46 dc bc
       0.037297707 -0.026706183 -0.025849322 -0.026889142
0002b0 8f 44 81 3d 9a d8 2d 3c 54 ee c3 3b a6 d1 1e 3c
       0.06311905 0.010610724 0.0059793387 0.009693539
0002c0 2b 97 60 bc 7c de da bb d7 7b ea bc da 79 2b bd
       -0.013707916 -0.0066793542 -0.028623505 -0.041864254
0002d0 4e be bd bc f3 aa 42 bd 4c f0 04 bd f3 1e 0b 3d
       -0.023162033 -0.04752631 -0.032455727 0.033965062
0002e0 77 ce 1e 3d c5 1d c9 3c 3f 76 7c 3b 13 b7 7a 3c
       0.03877112 0.024550328 0.0038522629 0.015302437
0002f0 97 ca 13 bd bb d9 b0 3b 49 1b 4f bd 5d 6e b9 3c
       -0.036081877 0.0053970492 -0.05056313 0.022635633
000300 cc 9a 56 3d 98 4c b7 bb fd bf b6 3c 32 62 65 3c
       0.05239372 -0.0055938475 0.022308344 0.014000462
000310 3d 94 80 3b 3d c4 8e bc 26 93 d2 bd 6d 6b 42 3d
       0.0039239214 -0.017427558 -0.102819726 0.04746573
000320 8c e5 a1 3c cc f5 04 3d 5a 09 0c 3d 29 45 86 bc
       0.019762777 0.032460973 0.034188606 -0.0163904
000330 26 29 54 bd 1f 9a 89 3d 27 66 04 3d b8 f5 71 3d
       -0.051797055 0.067188494 0.032323983 0.059072226
000340 9b 15 19 3d 33 1f 5a bd ef 41 7d 3c d2 68 d6 bc
       0.03737412 -0.05325241 0.015457614 -0.02617303
000350 2a cd 9b 3d d5 f2 bf 39 e8 76 fe bb ca 0b 81 bd
       0.07607491 0.00036611283 -0.0077656396 -0.06301077
000360 ac 1d 46 bc 83 12 df 3b 5b 4c 27 bd a9 e1 ff ba
       -0.012092035 0.0068076267 -0.040844303 -0.0019522208
000370 86 9f 4e bc 1f e8 fc bc a7 3b 10 3d ca 7a 9c 3c
       -0.012611276 -0.030872403 0.03521314 0.01910152
000380 fe ae 0b bd d4 c4 d5 bc a5 39 ac 3c d0 b4 77 bc
       -0.034102432 -0.026094832 0.02102358 -0.015118793
000390 75 e6 c3 bc 52 69 28 bd 8b 90 2b 3a 18 9e f4 bc
       -0.023913601 -0.041116066 0.0006544671 -0.029860541
0003a0 8f fb 06 bd 8c c0 4d 3b 98 80 e0 bc 47 72 1f 3b
       -0.03295475 0.0031395284 -0.027405068 0.002432959
0003b0 19 bb f6 bc fa ee b3 bc 01 30 41 3d db c2 d0 bc
       -0.030118512 -0.021964539 0.04716492 -0.02548354
0003c0 e1 e4 51 bb cc 0b a0 3d ab 1e 0d bc ae 5c 0a bd
       -0.0032027292 0.0781475 -0.008613269 -0.033779792
0003d0 2b e4 65 bb 13 ad 46 bc fd 99 28 bc 38 de 08 bb
       -0.0035078626 -0.012126225 -0.01029062 -0.0020884406
0003e0 95 a9 15 3c 13 36 1e bd 66 7d 21 3d 3a 94 76 3a
       0.00913467 -0.038625788 0.03942623 0.0009406243
0003f0 be 5b f8 bc 6e 12 35 3b 7f 5b 03 3c fb 1f 95 b9
       -0.030317184 0.0027629393 0.00801742 -0.00028443322

fc1.bias f4 [120]
000000 7c 2f 3a 3d 4a a6 2e 3d 45 23 53 3c 3d 13 4c bc
       0.04545544 0.042639054 0.012886827 -0.012455759
000010 ae 1b df bc 36 62 fd bc c1 38 4f 3d 89 fb b0 3c
       -0.027234878 -0.03093062 0.050591234 0.021604316
000020 60 f8 77 3b 7e 8a fb 3c 98 c1 c2 bc df 2b 9b 3d
       0.0037837252 0.030705687 -0.023773953 0.07576727
000030 3e 7d 1f 3d 74 f4 06 bd 6e c9 6e 3d 2c c8 bc bc
       0.0389378 -0.032947972 0.058297567 -0.023044668
000040 22 ad 2f bd 49 e8 bc 3a eb 00 e0 3c 53 a1 e8 3c
       -0.04288972 0.0014412488 0.027344188 0.028397238
000050 86 ea 5e 3c 66 a4 60 bd 21 9d b2 3a ed 0f c6 3c
       0.013605719 -0.054844283 0.001362715 0.024177516
000060 56 7b cb 3a 27 5b 51 bd 32 c1 23 3c ac f8 55 bc
       0.0015524428 -0.05111232 0.009994792 -0.013059776
000070 1a 4c 1f 3c d4 8a df 3c b4 8a 16 3d 24 c2 fc bc
       0.009722734 0.027287878 0.03675337 -0.030854292
000080 87 62 00 bd 76 e9 7c bd 95 37 32 bd bc 5b 8e 3b
       -0.031343963 -0.061746083 -0.04351004 0.0043444317
000090 eb 38 c4 3a 5a 27 68 3b f3 a4 37 3b b7 21 3f 3d
       0.0014970576 0.0035423846 0.0028021901 0.046663012
0000a0 4a 6e 12 3d 91 88 84 bc 93 93 de 3c a6 c3 1b bd
       0.03574971 -0.016178401 0.027169978 -0.03802838
0000b0 c0 c1 20 3c 68 ff 61 bd f3 a0 2c 3d 07 6b 61 3d
       0.009811819 -0.055175215 0.04214568 0.05503371
0000c0 96 e7 d0 bc df ae b1 bb 73 46 15 3d 30 45 2e 3b
       -0.025501054 -0.0054224576 0.03644414 0.0026591532
0000d0 67 ed b8 3c e8 86 af bc 2b 05 4d 3d 20 89 a4 bc
       0.02257414 -0.021426633 0.050053757 -0.020084918
0000e0 c0 c9 26 3c 0f e1 65 3d 06 d8 54 3d 89 49 2b 3d
       0.010179937 0.056122836 0.05196383 0.041818175
0000f0 0a 05 33 3d 5a 4d 32 3d cc d6 41 3d fd 19 42 bd
       0.043705977 0.0435308 0.047323987 -0.047388066
000100 e7 d1 30 bd 98 0e 5c 3c 47 6b 97 3b ea 0a 4a ba
       -0.04316893 0.013431214 0.0046209428 -0.0007707315
000110 ee 53 c1 bc 99 54 2d bd 22 1d 1e 3d e8 d1 cb 3b
       -0.023599591 -0.042317007 0.038602002 0.006220091
000120 61 5c 1f bb 79 a2 ee bc 43 02 1c bd b3 65 8d 3c
       -0.0024316537 -0.029130207 -0.038088094 0.017260408
000130 46 37 1a 3d 66 b3 6d bc 3d b6 53 3c 1e 1e 9a bb
       0.03765037 -0.014508104 0.012921867 -0.0047032973
000140 e1 f7 8d 3b 77 db 9c 3b 51 d7 40 3d 0a 06 93 3c
       0.004332528 0.0047869044 0.04708034 0.017947216
000150 71 0b 0d bd d9 db 34 bd ad e0 72 3d 33 aa 34 bd
       -0.03443474 -0.044154976 0.0592963 -0.044107627
000160 48 87 29 3d bb 82 fe 3c ac e9 01 3d 9e bf 31 3d
       0.04138878 0.031068197 0.031716987 0.04339563
000170 ae fc ac bc 74 84 cf 3c 72 c7 0e 3d 87 14 97 3c
       -0.02111658 0.025331713 0.034858175 0.018442405
000180 41 4f a9 bb bc aa 79 bb fd fa 6c 3c 9c b1 38 bd
       -0.0051669185 -0.003809615 0.014464137 -0.045091256
000190 28 65 e4 b9 44 c4 14 bd 6a 06 65 3d 5d e5 6a 3d
       -0.00043562916 -0.036319986 0.05591432 0.057347644
0001a0 d3 fc 39 3d 4b 39 de bc 7c d9 ad bc 39 01 35 bb
       0.045407128 -0.027126929 -0.021221869 -0.0027619137
0001b0 9a 83 41 3d cc f7 22 bd b9 61 32 3d b2 c9 de bb
       0.047244646 -0.0397871 0.043550227 -0.0067989463
0001c0 db 8f 33 3c e6 fd ea bc 4c 1a 04 3d 6e e3 78 3c
       0.010959591 -0.028685521 0.03225164 0.015190942
0001d0 76 24 99 3c 88 2b 08 3d d3 f9 68 3c 3c fa 01 3d
       0.018694144 0.03324464 0.014219719 0.031732783

fc2.weight f4 [84, 120]
000000 d5 52 20 3c bc 68 e9 3d e7 14 f9 3d 47 e5 f7 bc
       0.009785374 0.113969296 0.1216219 -0.030260695
000010 f4 1f 85 bd 5b be 17 bd 01 0e 0a 3c 87 6d 46 3d
       -0.06500235 -0.03704677 0.00842619 0.048444297
000020 5b 1c db bd c7 cd 65 3d e6 39 94 bd 25 30 03 bd
       -0.10698768 0.056104448 -0.07237606 -0.032028336
000030 27 fc 8a 3d 53 de 5a 3d 5f 2a 22 be 8f e7 d1 3d
       0.067863755 0.05343468 -0.15836476 0.102492444
000040 2c 2c a2 3a ca 70 28 3d 23 cc 80 bd be 2d 07 bd
       0.0012372783 0.04112319 -0.06288936 -0.033002608
000050 ec a2 91 bd ce c8 3a 3e 3b 29 12 bd 9b 61 20 bd
       -0.07111153 0.18240663 -0.03568385 -0.039155584
000060 0c 5c d4 3b db 68 24 3e 2d 20 0f 3d 85 2c c4 3c
       0.0064806994 0.16055624 0.034942795 0.02394701
000070 93 00 93 bc c6 60 4f bd 89 07 83 3d de 83 42 3d
       -0.01794461 -0.0506294 0.063979216 0.04748904
000080 d2 fb ab bd fd bc ed 3b dc a8 7d bd a2 14 5c 3d
       -0.0839764 0.007255195 -0.061928615 0.053730614
000090 c7 8c a1 3d fb be 60 3d 4c 30 a2 3d 4d 21 97 bd
       0.07888179 0.054869633 0.07919368 -0.073793985
0000a0 21 d2 ac bd 56 95 30 bd b9 08 a4 3d 9c f2 93 3d
       -0.084385164 -0.043111168 0.08009476 0.072240084
0000b0 71 1f 20 bd 1b 1c c4 3d 52 d9 2e bd ee a6 9d bd
       -0.039092485 0.09575673 -0.04268772 -0.07697855
0000c0 08 c2 9d 3d 66 55 7f bd a8 b9 a2 3d 0a 31 27 3c
       0.07703024 -0.0623373 0.07945567 0.010204563
0000d0 e5 d7 8e 3d ec 86 0b bd 38 bf e5 3d b5 1d b5 bd
       0.06974772 -0.03406422 0.11218113 -0.08843557
0000e0 79 2a f7 bb cc 64 db 3d 46 6f c7 bd 22 d8 97 bd
       -0.007542905 0.10712585 -0.097380206 -0.07414271
0000f0 94 13 43 3d 1c ff 93 3d 28 52 59 3d df 9c b6 3d
       0.047626093 0.072263926 0.053056866 0.089166395
000100 ad f4 2c 3d 30 a0 1a 3d 27 db 8f bd fd eb 7e bc
       0.04222553 0.037750423 -0.07024222 -0.015559194
000110 7b 6d 55 bd 31 42 97 3d d9 5a 85 3c 1e b0 4d bd
       -0.05210636 0.07385672 0.016278671 -0.050216787
000120 1d 01 49 3d 8f 96 0c bc dd cf c8 bd a8 36 12 3e
       0.049073327 -0.008580818 -0.09805272 0.14278662
000130 4a 03 06 3d e8 a7 86 bc 5a 1c 92 3d 1b 4e 14 3e
       0.03271798 -0.016437486 0.07134314 0.1448292
000140 9a ad af bd 7f 33 8e 3c 42 22 0c 3d 20 3b 90 3d
       -0.08578034 0.01735854 0.03421236 0.07042527
000150 2d 44 af 3d 98 6b 11 bd 49 bf 7a bd a9 be d8 3d
       0.085579254 -0.035503 -0.06121758 0.105832405
000160 55 c6 2a 3d 66 9c 96 bd 2c c3 48 3d 4f 21 66 3d
       0.04169305 -0.073540494 0.049014255 0.05618411
000170 e9 b4 c6 3c 8c ad 87 3d b7 82 98 3d 0c 62 db bd
       0.024256187 0.06624898 0.07446807 -0.1071206
000180 aa 86 cd bd b2 b3 8e bd 2b 73 90 3d a9 68 b6 3d
       -0.10035451 -0.06967868 0.070532165 0.08906681
000190 65 96 03 3d 4d bf db bb 80 55 50 3c cc f5 c2 3d
       0.03212585 -0.0067061544 0.012715697 0.09519538
0001a0 dc bc 11 3e a4 43 6b 3b 8d c6 35 3d 22 17 af 3c
       0.142322 0.0035898471 0.044378806 0.021373335
0001b0 6b 25 f7 3d 08 4b 68 bd da 6e 4f bd 34 12 0c bd
       0.12067684 -0.05671218 -0.050642826 -0.034197047
0001c0 1c 12 c0 bc 70 3c 7b bd 48 f1 81 3d a5 12 ac bd
       -0.023446135 -0.061336935 0.06344849 -0.08401994
0001d0 5c 94 10 be 89 27 25 bd 9d 73 ff 39 b8 bb 4f 3d
       -0.14119095 -0.040320907 0.0004872353 0.050716132
0001e0 66 91 f6 bc 68 10 05 3e bb 00 e9 3c 6e 3e ae 3c
       -0.030098628 0.1299454 0.028442731 0.021270003
0001f0 96 4e e2 bc 30 fc ac bc 52 d8 84 bd 29 da 80 bd
       -0.027625363 -0.021116346 -0.06486572 -0.06291611
000200 b4 8f ce 3d 81 25 31 bd db dd a4 bd 00 54 7d 3d
       0.10086003 -0.043248657 -0.08050128 0.061847687
000210 63 78 7b bd ce 33 71 3c e4 91 aa bb a6 06 8c 3d
       -0.061394107 0.014721824 -0.00520538 0.068372056
000220 14 a2 48 ba 31 0f c7 3a 6d d0 58 3c cb b3 3a bd
       -0.0007653546 0.0015187023 0.013233286 -0.04558162
000230 e5 12 8c bd 66 29 d3 3c 7e 42 59 bd 01 95 8e 3c
       -0.06839541 0.025776576 -0.053041928 0.017405035
000240 f3 c5 77 3d 1f 01 ef bc 7e ba 90 3d 71 5d 2d 3c
       0.060491513 -0.02917534 0.070668206 0.01058136
000250 d0 81 28 3d 62 6d ba 3c 4c 23 c0 bc 56 6a 86 bd
       0.041139424 0.022757236 -0.02345433 -0.06563251
000260 ee fd 51 3d f5 40 ab 3c d7 cf b7 3d 94 f4 6f 3c
       0.051267557 0.020904997 0.08975189 0.014645714
000270 01 ba f8 3c 0e d2 12 be 6b 3e ce bd 06 76 a2 bb
       0.030362131 -0.14337942 -0.10070499 -0.004957917
000280 d6 4d c6 bd 86 de 62 3d 57 09 6c 3d cf b8 6b 3d
       -0.09682815 0.055387996 0.057626095 0.057549294
000290 bd df 9c bc 6b 7c 6d 3d c3 50 96 bd f8 5e ee 3d
       -0.019149655 0.057979982 -0.07339623 0.116392076
0002a0 4b d7 ff 3d 53 cd 49 3d 65 1d 75 3d 17 20 29 bd
       0.12492236 0.049268078 0.059842486 -0.04129037
0002b0 25 db 93 3d 7b 98 1c bd bb 50 c8 bb 7c 4f 93 3d
       0.07219533 -0.038231354 -0.0061131394 0.07192895
0002c0 11 28 ae bd 32 43 8e bd 10 57 fa 3d 68 58 97 3d
       -0.08503736 -0.0694641 0.12223637 0.07389909
0002d0 98 d3 ba bd b9 b7 93 3d db d3 0d 3d 95 66 be 3a
       -0.091223896 0.07212777 0.03462587 0.0014526421
0002e0 86 9f a1 3c 50 15 98 bd bd a4 8b 3d c9 72 73 bd
       0.019729387 -0.0742594 0.06818531 -0.05943564
0002f0 0c ac 18 3c a8 69 9c bd a0 81 bc bc db e8 7d bd
       0.009318363 -0.0763734 -0.023011029 -0.061989646
000300 be 31 6e 3d d3 ea 30 bd d7 95 7e 3d a5 b6 bf bd
       0.058152907 -0.043192696 0.062154617 -0.093610086
000310 7b 33 73 bc b4 26 87 bc 77 1a 41 3d e0 ae 79 bd
       -0.014843817 -0.016497947 0.04714438 -0.06095779
000320 d1 d4 df 3d bf b0 05 bd 40 a3 f1 bd fc ca f7 3c
       0.109292634 -0.03263926 -0.117987156 0.030248158
000330 76 c1 81 3d de 5c 95 bd 02 12 c8 bc ce 0c 3f bd
       0.06335728 -0.07293104 -0.02442265 -0.04664307
000340 ec 1d af bd de 23 1f bd 5e 76 a8 bc ce 60 d0 bd
       -0.08550629 -0.038852565 -0.020564254 -0.10174714
000350 3d 46 51 3d c0 42 28 3c 76 28 cb bd ec c2 41 bd
       0.051092375 0.010269821 -0.09919827 -0.047305033
000360 76 38 dc bd a7 4c 11 3e 1c 5a 08 bc 10 c3 26 3d
       -0.107529566 0.14189397 -0.008322265 0.04071337
000370 e4 58 4e be fd 5e b7 3d cb 09 93 3c 6f 9b b0 bc
       -0.20151097 0.089536645 0.017949006 -0.021558492
000380 29 e6 8e bd 1c 75 89 3d 34 ad f4 3d 46 e3 48 bd
       -0.06977493 0.0671179 0.119470984 -0.04904487
000390 da 6c 7b 3d 9a e1 80 3d 24 04 79 3d 95 e8 9f bd
       0.061383106 0.0629303 0.060794964 -0.078080334
0003a0 19 57 84 bb 65 a1 e7 bb 7e b9 5b bd 7c 43 ba bd
       -0.004038703 -0.0070688003 -0.053643696 -0.09094903
0003b0 43 de 87 3d 19 07 c5 3d e2 d4 72 bd 00 17 30 bc
       0.0663419 0.096204944 -0.059285052 -0.010747671
0003c0 26 66 ed bb 52 7f 27 3d f0 a0 1b bd 12 81 e5 3b
       -0.007244843 0.040892906 -0.03799528 0.007003912
0003d0 f3 2c 9c bc ac e4 23 3d 5b 3e 3b bd c2 e4 bd bc
       -0.019064402 0.040013 -0.045713764 -0.02318037
0003e0 c2 64 97 bd 3d 8e a2 3d a5 f0 36 3d a9 b2 1d bd
       -0.07392265 0.07937286 0.04466309 -0.03850046
0003f0 e5 f3 68 3d 80 2e a7 3d 9e 30 b7 3d 54 a1 00 3e
       0.05687322 0.08163166 0.0894482 0.12561542

fc2.bias f4 [84]
000000 33 87 67 3d 2f 8c 8f 3d 83 59 a2 bc 1b 18 ca 3d
       0.05652542 0.0700916 -0.019818073 0.09867879
000010 c5 76 93 3d b1 08 81 bc 98 e1 db 3c 46 39 04 3e
       0.07200388 -0.015751215 0.02684097 0.12912473
000020 1d e2 34 3d 10 cd a3 3d f9 93 ec 3c b4 ae dd 3d
       0.04416095 0.07998097 0.028879153 0.108243376
000030 5a b2 af 3d ca cf 8c 3d 81 89 87 bd 46 bd 8e 3c
       0.0857894 0.0687557 -0.06618024 0.017424237
000040 2d 0f 3c bd a4 60 b7 3d 99 9e 22 bd d1 63 de 3d
       -0.04591291 0.089539796 -0.03970203 0.10858882
000050 82 c7 e8 3d 37 c9 b8 bd 15 12 98 bd fc a4 9c bc
       0.11366178 -0.09022754 -0.07425324 -0.01912164
000060 7b f9 af bd 67 c0 a5 3d d4 80 25 3d ea 40 d3 bc
       -0.085925065 0.080933385 0.040406063 -0.02578779
000070 4b f0 02 3d 13 13 17 3d ad 1b 29 3c 31 ed 8e 3c
       0.031967442 0.036883425 0.01032154 0.017447086
000080 9d 5e 90 bd f9 8b 1b 3d 1c eb 46 3d a9 6a db 3c
       -0.07049296 0.037975285 0.04856406 0.026784258
000090 a8 1b 32 3d 9b 9f a8 bd d1 59 da 3d a3 41 88 3c
       0.043483406 -0.08233567 0.10661662 0.01663286
0000a0 d9 09 b2 bd 33 ef a1 bc f9 8c 63 bd e5 d8 da bc
       -0.086932845 -0.01976738 -0.055554364 -0.026714751
0000b0 6f 9e 2b bd 32 0a 96 bd 13 0b f0 3c 9c ca 5f 3c
       -0.04189914 -0.07326163 0.029302156 0.013659146
0000c0 c1 4c bb bd c8 5b b7 bd cc 75 a3 3d 8a 80 78 bd
       -0.09145499 -0.08953053 0.07981452 -0.06066946
0000d0 4d cb 9e bc bd 43 cd bc 73 2d ac bd 82 68 b6 3c
       -0.01938405 -0.025056714 -0.08407106 0.02226663
0000e0 ba 90 70 bd 81 09 ab 3c 2d b4 5c 3c d4 ac 85 3d
       -0.058731772 0.020878555 0.013470692 0.06527105
0000f0 5a 4d a1 3c b5 c1 f1 3d b8 ef 37 bd e9 cb 0a bd
       0.019690204 0.11804525 -0.044906348 -0.03388587
000100 bc c3 a6 bd 3f 41 22 3d 0c 84 94 3d a0 6d 00 3c
       -0.08142802 0.039613005 0.072517484 0.007838637
000110 9a 77 55 bd 74 fb 86 3d cd e5 fb 3c de b3 a4 bd
       -0.052116014 0.065909296 0.030749226 -0.080421194
000120 28 6f 76 3d 71 20 34 3d 85 0e ac bd 5a 1e 72 3c
       0.0601646 0.04397625 -0.08401207 0.014777744
000130 5c d1 bd 3c 1b 38 09 3e 97 de ff b9 9a b9 95 3b
       0.02317112 0.13400309 -0.00048803232 0.0045692446
000140 6e e7 ea 3b b6 21 8d bd 7b b3 a1 3b ff 59 bf 3d
       0.007168702 -0.068911955 0.004934726 0.09343337

fc3.weight f4 [10, 84]
000000 c9 85 97 bc b9 cd 29 be b3 7f 24 3e 80 4b ea bd
       -0.01849641 -0.16582383 0.16064338 -0.11440182
000010 c8 3a 99 bd b6 26 6e be 5d 83 d6 bd 54 67 40 be
       -0.07481915 -0.23256955 -0.10474274 -0.18789417
000020 38 ee 60 bd 52 a3 43 be 14 48 e7 3c 7e dc 62 3c
       -0.054914683 -0.1910527 0.028232612 0.013846515
000030 7c 5a 28 3e 04 29 e6 bd 50 4e f4 bd 62 5e 28 3e
       0.16440767 -0.11238292 -0.119289994 0.16442254
000040 0f 47 7e 3d 62 c1 a8 3e 32 3d fc 3b 21 ca ca bd
       0.062079486 0.3296004 0.0076977247 -0.09901834
000050 5d 77 58 be 0e 22 86 bd b3 bf c9 3d 32 1b e5 3d
       -0.21139283 -0.06549464 0.09851017 0.11186828
000060 1f 6a d1 bd 35 fe d7 bd 05 4e d2 3c 4c 93 9a 3d
       -0.10225319 -0.10546533 0.025671968 0.07547626
000070 c6 46 20 3d cd 30 eb bb 22 dc d4 bd 6f e4 e4 3d
       0.039129995 -0.0071774484 -0.103935495 0.11176383
000080 c6 c3 c0 bd 90 1c ef 3d d7 06 3b bd 91 4f 49 be
       -0.09412341 0.1167537 -0.04566082 -0.19659258
000090 ba 6d c9 3d a3 72 33 3d b5 5a 4c 3d e0 41 8a be
       0.09835382 0.043810498 0.049891192 -0.27003384
0000a0 19 53 fe bd 76 37 9e 3d be a3 cc 3a 48 c8 7c 3d
       -0.12418193 0.07725422 0.0015612764 0.06171444
0000b0 7a 60 72 bc 3b 03 af bd 18 ae 83 3d e0 8c 39 3e
       -0.01479351 -0.08545538 0.0642969 0.18120146
0000c0 16 41 90 3d 6b b4 1d 3d f5 7f 41 be d2 c7 04 be
       0.07043664 0.038502138 -0.18896468 -0.1296685
0000d0 1c 73 05 3e 3a 1c c6 bd 81 64 e7 bd 3e 1d 95 3d
       0.13032192 -0.096733525 -0.112984665 0.07280968
0000e0 8d 6c 2b 3e 6d 31 33 be a8 ea 24 3e 5b 7a 8a 3d
       0.16740628 -0.17499323 0.1610514 0.06761619
0000f0 ae 92 08 be 54 3a 0d be 5d b7 0b 3d a9 53 9b bd
       -0.13337204 -0.13791782 0.034110416 -0.07584316
000100 36 ac 3a bd 06 f0 7e bc c3 c0 23 be 07 fd 14 bd
       -0.04557439 -0.015560156 -0.15991502 -0.03637412
000110 ff 46 c5 3d b4 c8 92 3d d8 ee 45 3d d0 6a f5 3c
       0.09632682 0.07167187 0.048323482 0.029958159
000120 8b fb 13 3d e9 5e 59 3e ab 8d 09 3e af 8c 28 be
       0.036128562 0.21227612 0.13432948 -0.16459917
000130 e3 30 6e 3d 12 08 13 be 99 41 28 be 34 e2 6b 3d
       0.05815209 -0.14358547 -0.16431274 0.05758877
000140 dc 47 60 bd 6e cb 0f 3c b4 08 8f 3d 95 7d 40 3e
       -0.05475603 0.008776529 0.06984082 0.18797906
000150 a5 5e 6b 3e 61 c2 49 be ae c7 78 3b f3 be 13 3d
       0.22985323 -0.19703056 0.0037960815 0.036070775
000160 a5 a5 26 bd 43 1a c9 3d eb 21 fa 3b 8f 5b 82 bc
       -0.040685315 0.09819462 0.007633438 -0.0159128
000170 67 05 a2 3c de b2 64 bd cd d6 6e bd 52 f7 a3 3e
       0.019777967 -0.055834644 -0.05831032 0.32024628
000180 2c f0 00 be 2e 3a ae bc 8f eb be bd 14 8b e6 bc
       -0.12591618 -0.021267977 -0.09322273 -0.02814249
000190 91 c8 bf 3d c7 f1 84 3d cf 4a 35 bd 6c cd ab 3e
       0.09364427 0.06491428 -0.044260796 0.33555162
0001a0 d7 a5 ab 3d 5f 87 01 bd be 86 1c 3d 71 a0 bf 3d
       0.08381241 -0.03162324 0.038214438 0.09356774
0001b0 bd 87 b0 3d 4c 84 68 3b f3 2b 68 3e 50 87 08 bd
       0.0861964 0.0035479246 0.22673015 -0.03333217
0001c0 19 9c 15 bd 19 a6 13 be c6 0c 31 3e 82 e1 87 3d
       -0.03652582 -0.1441883 0.17290029 0.06634809
0001d0 f6 fc 9b 3d 8c 85 ec bc 40 1f 60 bd f2 ef 5a 3e
       0.07616608 -0.028872274 -0.054717302 0.21380594
0001e0 d9 05 42 3e a1 3f f0 3d c4 11 c7 3d ec 5c d7 bd
       0.18947543 0.11730886 0.097201854 -0.1051577
0001f0 7f 02 c4 3c bb d4 69 be 11 84 c2 3d b2 f0 5c bd
       0.023926971 -0.22835056 0.09497846 -0.053940482
000200 53 06 9f bd 3a 99 70 bd 6b 44 46 bd 52 bf 91 be
       -0.07764878 -0.05873988 -0.048405092 -0.28466278
000210 c9 fc 85 bd 89 4d a4 3d 8c 7b fe bc 01 7d a2 3c
       -0.065423556 0.08022601 -0.031064771 0.019834997
000220 d4 77 c3 3d 1e 66 2a 3e fc 9f 1d be fc 0d d3 bd
       0.0954434 0.16640517 -0.1539306 -0.10305402
000230 bf 72 1e be bb d8 ad bc f6 93 ed bd 65 39 6b be
       -0.1547346 -0.02122151 -0.11600487 -0.22971113
000240 60 3d b5 bd c8 6d 9b 3d 61 66 ff bd 3b 4f 88 bd
       -0.08849597 0.075892985 -0.12470699 -0.06655737
000250 ab d2 ab 3d e8 7b 27 be 82 29 13 3e f6 ff d5 bd
       0.08389791 -0.1635586 0.14371303 -0.10449211
000260 87 a0 69 3d 6d 9d fb bd 11 6a 83 bd 63 02 07 3d
       0.057037856 -0.12285886 -0.06416715 0.03296126
000270 18 c4 18 be 5d bb 45 be 89 17 82 bd f6 06 ff bd
       -0.14918554 -0.19309755 -0.06352145 -0.124524996
000280 7d 47 1c 3d 06 db d0 bc 06 9d 88 3e 1e c2 10 be
       0.038154114 -0.025495064 0.266823 -0.1413655
000290 77 e4 01 bd b9 b5 e4 3d 69 a0 8b 3d 5b 70 56 3e
       -0.03171202 0.11167473 0.06817705 0.20941298
0002a0 bb 65 c2 3d 5e 93 ae 3c a3 0f a0 bd 0a 91 98 3e
       0.0949206 0.021310505 -0.078154825 0.29798156
0002b0 61 ee 59 3d 23 00 36 3d 0c a4 2f 3e 22 f8 c8 be
       0.05320585 0.044433724 0.17152423 -0.3925181
0002c0 ed 59 ba bd 24 48 4c be 50 c2 66 3d 35 bf e0 3d
       -0.09099183 -0.19949394 0.056337655 0.1097397
0002d0 d7 80 13 be 7b bc 07 3e 2c 92 4f bd 40 1c 81 3b
       -0.14404617 0.13255493 -0.05067651 0.0039401352
0002e0 db 7f 78 3d 4a aa 1d be 73 34 5e bd 5a a4 d7 bd
       0.060668807 -0.15396991 -0.05424924 -0.105293944
0002f0 a1 48 e3 bd 3b fc 8c bb d8 84 a6 bc 19 d2 be bd
       -0.11097837 -0.004302529 -0.020327017 -0.09317417
000300 d7 fe 36 3c 4b 14 24 bc ff 63 ad 3d b5 43 38 3d
       0.011169157 -0.010014604 0.08466338 0.044986445
000310 7c d6 7a 3e 48 0f c5 3c f7 07 27 3d 6e 0e 0d 3d
       0.24495882 0.024055138 0.04077908 0.03443759
000320 13 0f a2 bd e9 b7 4c bc c6 7f 9b bd 31 4b b5 bc
       -0.079130314 -0.0124950195 -0.0759273 -0.02213058
000330 36 d8 4d be 65 d8 3a bd 4b 92 85 be b0 2f 7a be
       -0.20102009 -0.045616526 -0.26088175 -0.24432254
000340 e0 38 49 bd 28 10 2c 3c c6 47 b2 bc 5e e4 df 3d
       -0.049126506 0.010501899 -0.02176274 0.109322295
000350 13 a9 61 3e fa 82 8b 3d 1f e2 2c be 04 12 4e 3e
       0.22037153 0.06812091 -0.16883133 0.2012406
000360 24 58 1e be d4 cf 34 3c 24 a5 4e be 41 5c 87 3d
       -0.1546331 0.011035878 -0.20180184 0.06609393
000370 3b 73 8f 3c b3 72 fd 3d bf 39 a6 3d c1 1d c7 3d
       0.017511 0.12375393 0.08116483 0.09722472
000380 3a 56 18 3e e5 ca 83 bd 33 af 23 be 4b 97 c9 3c
       0.14876643 -0.064351834 -0.15984802 0.024608275
000390 ce c7 22 3b 6b 8b c2 3d 07 66 4e 3b 49 d8 69 3d
       0.002483833 0.09499248 0.0031493919 0.05709103
0003a0 4d be 7c 3d 01 96 17 bd 1f f1 31 3e 0c ba fc bd
       0.061704922 -0.03700829 0.17377137 -0.12340173
0003b0 d3 3c f1 3d 9e c4 51 3e 25 b7 67 3d 90 84 15 3b
       0.117791794 0.2048516 0.056571145 0.002281461
0003c0 8b 02 2a be 08 2e a4 3e 4b 83 c4 3d 1a 5d 10 3e
       -0.16602533 0.3206637 0.09595355 0.14098015
0003d0 4d a8 40 3c c7 36 41 b9 6f f7 d9 3d 4f 40 03 bd
       0.011758876 -0.0001842632 0.10642897 -0.03204375
0003e0 e1 d0 09 3e c4 df 35 be 0c 2b cc 3c ae d7 2b 3c
       0.13458587 -0.17761141 0.02492287 0.010488434
0003f0 22 7e 2b 3e f9 51 02 be d5 c7 c5 bd 79 5b 4d 3e
       0.16747335 -0.12726583 -0.096572556 0.20054425

fc3.bias f4 [10]
000000 d8 4c b2 bd 5d 38 ee 3d b2 64 83 bd 0b e6 c3 bc
       -0.08706063 0.11631844 -0.064156905 -0.023913404
000010 d9 f8 80 3b ce d4 10 3d 5a 51 8c bd 03 61 e2 3d
       0.003935915 0.035359196 -0.06851454 0.1105366
000020 61 60 69 bd ae 01 1c 3b
       -0.05697668 0.0023804712
